…
Load patches from /home/kolaleye/lustre/onitemi/data/working/train_data/patches/23729035_15_64.pickle.
Load patches from /home/kolaleye/lustre/onitemi/data/working/train_data/patches/23879080_15_64.pickle.
Load patches from /home/kolaleye/lustre/onitemi/data/working/train_data/patches/24179065_15_64.pickle.
Load patches from /home/kolaleye/lustre/onitemi/data/working/train_data/patches/23578960_15_64.pickle.
Length of features_train:  1930109
Summary of the model
_________________________________________________________________
Layer (type)                 Output Shape              Param #   
=================================================================
conv2d_1 (Conv2D)            (None, 28, 28, 64)        15616     
_________________________________________________________________
activation_1 (Activation)    (None, 28, 28, 64)        0         
_________________________________________________________________
conv2d_2 (Conv2D)            (None, 24, 24, 128)       204928    
_________________________________________________________________
activation_2 (Activation)    (None, 24, 24, 128)       0         
_________________________________________________________________
flatten_1 (Flatten)          (None, 73728)             0         
_________________________________________________________________
dense_1 (Dense)              (None, 4096)              301993984 
_________________________________________________________________
activation_3 (Activation)    (None, 4096)              0         
=================================================================
Total params: 302,214,528
Trainable params: 302,214,528
Non-trainable params: 0
_________________________________________________________________
Save trained model to /home/kolaleye/lustre/onitemi/data/working/models/30_11_2017_1317_sentinel_one_layer.
